iris_classification.tflite (tflite, 2020 bytes, 4 tensors)

sequential/dense_1/BiasAdd/ReadVariableOp f4 [3]
0	0x3e77e253	0.2420743
1	0x3d5a2dc8	0.053266317
2	0xbe58063e	-0.21096131

sequential/dense/BiasAdd/ReadVariableOp f4 [10]
0	0xbe301cf8	-0.1719855
1	0x3d790b2e	0.060801677
2	0xbe3f3992	-0.18674305
3	0x3caef3fc	0.021356575
4	0x3e0ae8ea	0.13565412
5	0x00000000	0.0
6	0x3e298af0	0.16556907
7	0xbdcff085	-0.10153297
8	0x00000000	0.0
9	0xbd035a46	-0.032068513

sequential/dense/MatMul f4 [10, 4]
0	0xbe33a5e6	-0.17543754
1	0x3e8551c1	0.26038936
2	0x3e0227c5	0.12710483
3	0x3e3040dd	0.17212243
4	0x3e7557d2	0.23959282
5	0x3b413ea6	0.0029486804
6	0x3e6a9a9a	0.22910538
7	0x3ed72e17	0.4202735
8	0x3ee2d837	0.44305584
9	0x3ef114ca	0.47086173
10	0x3dd90911	0.105974324
11	0x3f15a78c	0.5845878
12	0xbe943e7b	-0.2895392
13	0xbe069bcc	-0.1314537
14	0x3f8e6f59	1.1127731
15	0x3f701ca1	0.93793684
16	0x3f099f27	0.5375847
17	0x3eb12a5e	0.34602636
18	0xbeff2d50	-0.49839258
19	0x3eb18f0f	0.34679458
20	0xbdd9a2b8	-0.10626739
21	0xbf1f2a89	-0.6217428
22	0xbe20b3f4	-0.15693647
23	0xbe687d82	-0.22704127
24	0x3f444829	0.7667261
25	0x3ed6d53a	0.41959554
26	0x3f10dfe2	0.5659162
27	0xbd966c0b	-0.07344826
28	0xbe195341	-0.14973165
29	0x3eec5ad8	0.46163058
30	0xbf1f0f65	-0.62132865
31	0xbf32bbb1	-0.69817644
32	0x3cb073c0	0.021539569
33	0xbf22cebe	-0.63596714
34	0x3e530520	0.20607424
35	0xbdb76900	-0.08955574
36	0x3e846ffe	0.25866693
37	0xbe4850f7	-0.19562136
38	0xbeeb07fa	-0.45904523
39	0xbf2ee3ca	-0.6831633

sequential/dense_1/MatMul f4 [3, 10]
0	0x3e213f8b	0.15746896
1	0x3f3a657f	0.7281112
2	0xbecbc746	-0.3980047
3	0xbfa9c91a	-1.3264496
4	0x3f757f5b	0.95897454
5	0xbe4b704c	-0.19867057
6	0xbe56e8ef	-0.20987295
7	0xbf0593d3	-0.52178687
8	0x3f076ce6	0.5290054
9	0xbecf6dfe	-0.40513605
10	0x3f1c48d5	0.6104863
11	0xbf20492c	-0.6261165
12	0xbeefee8d	-0.46861687
13	0xbe18ff1b	-0.14941065
14	0x3d98e536	0.074655935
15	0xbf1ba929	-0.6080499
16	0x3ea7c2e2	0.3276587
17	0xbf142176	-0.5786356
18	0xbeee089a	-0.46490937
19	0xbed4531d	-0.4146966
20	0x3eae4450	0.34036493
21	0x3e9d791c	0.30756462
22	0x3e477dd8	0.194816
23	0x3d3f8034	0.046753123
24	0x3ec57e92	0.38573128
25	0x3d0237a0	0.03179133
26	0xbf127fcd	-0.5722626
27	0x3e994f3a	0.29943258
28	0x3f1e01ce	0.61721504
29	0xbebfd5d8	-0.37467837
